레퍼런스/hand-gesture-recognition-mediapipe-main/hand-gesture-recognition-mediapipe-main/model/keypoint_classifier/keypoint_classifier.tflite (tflite, 26976 bytes, 10 tensors)

dense_72/bias f4 [4]
-0.07692501 -0.055196203 0.0067249443 0.0970533
00000000: dc8a 9dbd 6a15 62bd ec5c dc3b e1c3 c63d

dense_71/bias f4 [20]
-0.053257853 -0.003198391 -0.017408159 -0.005187061 0.10623485 0.11015157 0.10479442 0.040965345
0.041030396 -0.048066717 0.02338577 -0.0014629752 0.110113464 0.1749918 -0.011357034 0.08461674
0.10944298 0.047621407 0.0381933 0.008409325
00000000: e824 5abd 199c 51bb 8e9b 8ebc 39f8 a9bb
00000010: a891 d93d 2597 e13d 759e d63d 47cb 273d
00000020: 7d0f 283d 9be1 44bd 8493 bf3c 4dc1 bfba
00000030: 2b83 e13d 0d31 333e da12 3abc 8b4b ad3d
00000040: a423 e03d aa0e 433d 9470 1c3d 44c7 093c

dense_70/bias f4 [80]
-0.042899054 0.05345437 0.038481865 -0.006425203 0.08721383 0.036176983 -0.046021182 0.031530738
-0.029372375 -0.06358642 0.048056457 -0.016973695 -0.019083327 0.043273527 0.0074722683 0.0033383295
0.02115204 0.009190302 0.00991504 0.0069075283 0.0073419497 0.02607674 0.04777465 0.088743724
0.061770555 0.096742354 0.044411093 0.05915506 0.014835646 0.058121208 0.014006582 -0.019933581
0.031081067 -0.00043357437 0.03188126 0.030559223 0.005171362 0.001292451 0.064512014 -0.0072708167
-0.0075969812 0.07595806 0.03042363 -0.054509033 0.05984719 0.084224634 0.035587404 0.024510227
0.017425656 0.03364013 0.07572163 0.11334199 0.0030533522 -0.0037074005 0.06397144 0.057883732
-0.029126242 0.022875434 0.093175165 -0.041017085 0.032582697 0.04996565 -0.050504223 0.039293546
0.05000164 -0.03223065 0.03256325 0.063107416 0.083147965 0.021003263 0.029507445 0.039147582
0.0236914 -0.07013959 0.03578944 0.07822662 0.04857222 0.051122494 0.01822263 0.022830604
00000000: ebb6 2fbd f8f2 5a3d 299f 1d3d 828a d2bb
00000010: 2a9d b23d 512e 143d b580 3cbd 6026 013d
00000020: 569e f0bc 9939 82bd d9d6 443d 6b0c 8bbc
00000030: a354 9cbc 953f 313d eed9 f43b e0c7 5a3b
00000040: 0b47 ad3c ec92 163c b172 223c 8c58 e23b
00000050: bd94 f03b e39e d53c 5aaf 433d 45bf b53d
00000060: 1f03 7d3d db20 c63d 68e8 353d 944c 723d
00000070: 3611 733c 8110 6e3d dd7b 653c c04b a3bc
00000080: b99d fe3c 5e51 e3b9 ed95 023d 5657 fa3c
00000090: 8774 a93b 7667 a93a e01e 843d 0840 eebb
000000a0: 19f0 f8bb e68f 9b3d fa3a f93c dd44 5fbd
000000b0: 5422 753d f77d ac3d 19c4 113d acc9 c83c
000000c0: 40c0 8e3c 3cca 093d f113 9b3d d81f e83d
000000d0: c01a 483b dcf7 72bb 7503 833d 7e17 6d3d
000000e0: 289a eebc 4365 bb3c 9fd2 be3d 8801 28bd
000000f0: 6f75 053d c8a8 4c3d 84dd 4ebd 45f2 203d
00000100: 85ce 4c3d 4904 04bd 0b61 053d 763e 813d
00000110: 7b49 aa3d 090f ac3c 99b9 f13c 3759 203d
00000120: 7814 c23c 58a5 8fbd f397 123d 4735 a03d
00000130: aaf3 463d d265 513d a047 953c 3f07 bb3c

dense_69/bias f4 [160]
9.491603e-06 -0.042428724 -0.0066833114 0.020266738 0.0729249 -0.031284258 0.036379263 -0.034166172
0.061793625 -0.049283795 -0.04162443 -0.08435205 0.024065258 -0.009683993 0.019803962 0.0031036464
0.03277903 -0.07798972 0.00404436 -0.037412185 -0.03452165 0.026026936 -0.029213052 -0.029129993
-0.041237008 0.031884436 -0.00951625 -0.01487225 -0.028437382 -0.023611218 -0.06518367 0.0137797315
-0.019698799 0.0065745246 0.032716163 -0.009431776 0.006148767 0.026778061 -0.010869639 0.01763299
-0.05065717 0.07013683 0.04372135 0.024207672 -0.0137497345 0.033391014 -0.007773785 -0.03421948
-0.017895514 -0.02590816 -0.04111937 0.04973288 -0.033882722 0.019940654 0.04031397 -0.038817823
-0.057994835 0.016797964 0.039642133 0.038033128 0.0037982038 -0.03443204 -0.0058622905 -0.04817202
0.027043456 -0.061377212 0.0071441047 -0.015982943 0.012449827 0.0061591817 0.012236821 0.0074358736
0.024660578 -0.04254798 0.01788424 -0.029087048 0.03105255 -0.05665016 -0.0016561543 0.031276867
0.053199716 0.02817771 -0.05646779 0.0014507718 -0.013610737 0.0045654383 -0.06002347 -0.044533946
-0.03340323 0.007850815 -0.023999782 -0.08523908 0.042111296 0.01275079 -0.03490473 0.022086168
-0.035583485 -0.009386779 -0.06726805 -0.027639192 -0.022082224 0.0148589425 0.036072984 -0.08618187
-0.010440828 -0.043726247 -0.0309198 0.044328928 0.022508062 0.024654763 0.016139455 -0.07722887
0.01811296 -0.000968912 0.0005085567 0.015255034 -0.009740825 -0.0026524146 -0.01695318 -0.0011624156
-0.05137733 -0.024742078 -0.0018316333 -0.01778855 -0.019380363 -0.029570093 0.003814369 -0.06886013
-0.051720124 0.036303923 0.04204813 -0.061808918 -0.041925684 -0.015074824 0.0063718953 -0.037179127
0.035455275 -0.021907385 -0.010264744 -0.10987907 0.029202858 -0.04450702 0.030500026 -0.0317327
0.0038834265 -0.019656926 -0.0037443035 0.009785705 -0.044520482 -0.0019824728 0.001883246 -0.036194697
0.040639218 -0.047949865 -0.009395768 -0.010745104 0.031592883 -0.011314821 -0.0520393 -0.062166486
00000000: 203e 1f37 bec9 2dbd aeff dabb 6e06 a63c
00000010: a659 953d ec23 00bd 6c02 153d d4f1 0bbd
00000020: 501b 7d3d cedd 49bd 617e 2abd c5c0 acbd
00000030: 8124 c53c 9ca9 1ebc eb3b a23c 8c66 4b3b
00000040: 4e43 063d 13b9 9fbd 8d86 843b 853d 19bd
00000050: 9366 0dbd 7136 d53c 3650 efbc 06a2 eebc
00000060: 23e8 28bd 4199 023d 0cea 1bbc bdaa 73bc
00000070: 83f5 e8bc 506c c1bc 047f 85bd 62c4 613c
00000080: 605f a1bc 1c6f d73b 6201 063d bc87 1abc
00000090: 997b c93b aa5d db3c 9216 32bc 0f73 903c
000000a0: e57d 4fbd e6a3 8f3d 2915 333d 2b4f c63c
000000b0: 9146 61bc 04c5 083d 3cbb febb ba29 0cbd
000000c0: 9d99 92bc 593d d4bc c96c 28bd b4b4 4b3d
000000d0: 9cc8 0abd 955a a33c 4320 253d 70ff 1ebd
000000e0: fe8b 6dbd e29b 893c ca5f 223d a0c8 1b3d
000000f0: 49eb 783b 9c08 0dbd 7518 c0bb 0650 45bd
00000100: 3d8a dd3c ac66 7bbd 1819 ea3b a9ee 82bc
00000110: 5cfa 4b3c f6d2 c93b f37c 483c a1a8 f33b
00000120: fb04 ca3c ca46 2ebd f881 923c f647 eebc
00000130: eb61 fe3c 000a 68bd 5113 d9ba 2c1c 003d
00000140: f2e7 593d f1d4 e63c c54a 67bd d327 be3a
00000150: 92ff 5ebc ac99 953b 2cdb 75bd 3a69 36bd
00000160: d3d1 08bd b4a0 003c 319b c4bc d491 aebd
00000170: e57c 2c3d b1e8 503c 43f8 0ebd 0dee b43c
00000180: fdbf 11bd 01cb 19bc d5c3 89bd 966b e2bc
00000190: c8e5 b4bc ec72 733c 44c1 133d 1f80 b0bd
000001a0: 0210 2bbc 4b1a 33bd 854b fdbc 4092 353d
000001b0: d462 b83c c9f8 c93c e436 843c 2b2a 9ebd
000001c0: a161 943c 95fe 7dba aa50 053a 40f0 793c
000001d0: fb97 1fbc 22d4 2dbb 65e1 8abc 325c 98ba
000001e0: 0971 52bd e6af cabc 6a13 f0ba 4bb9 91bc
000001f0: 91c3 9ebc fb3c f2bc 7efa 793b 8a06 8dbd
00000200: 7bd8 53bd 6cb3 143d a93a 2c3d 592b 7dbd
00000210: 44ba 2bbd 65fc 76bc 55cb d03b 2449 18bd
00000220: 8d39 113d 1e77 b3bc 752d 28bc 4708 e1bd
00000230: d53a ef3c fe4c 36bd 31db f93c 26fa 01bd
00000240: 1681 7e3b 9007 a1bc fd62 75bb 3954 203c
00000250: 1c5b 36bd 60ec 01bb 40d7 f63a e440 14bd
00000260: 4f75 263d 1467 44bd b5f0 19bc 3c0c 30bc
00000270: 8a67 013d cd61 39bc 2927 55bd 49a2 7ebd

dense_68/bias f4 [40]
0.24741317 0.15318793 -0.15809555 -0.011379777 0.045454625 0.1759027 -0.24384591 -0.14188653
0.2356181 -0.216998 -0.11833313 -0.2798138 -0.013784451 0.026404994 -0.02255556 0.030061219
-0.12448552 0.038125955 -0.1479643 0.10024916 -0.050605766 -0.23297946 -0.094708584 0.1755402
-0.10010198 0.1002912 -0.18840328 -0.17620501 -0.03176749 0.19973734 0.20765877 -0.14101872
0.09479262 -0.068026 0.0 0.17281894 0.072885096 -0.119407944 0.27455476 -0.074428804
00000000: e159 7d3e 4cdd 1c3e cde3 21be 3f72 3abc
00000010: a12e 3a3d d61f 343e beb2 79be b44a 11be
00000020: df45 713e b934 5ebe a458 f2bd c143 8fbe
00000030: 2ed8 61bc 494f d83c 70c6 b8bc f242 f63c
00000040: 44f2 febd f629 1c3d f483 17be 6e4f cd3d
00000050: fe47 4fbd 2b92 6ebe 93f6 c1bd cfc0 333e
00000060: 4402 cdbd 7965 cd3d caec 40be 166f 34be
00000070: a11e 02bd f287 4c3e 80a4 543e 3667 10be
00000080: a222 c23d 3751 8bbd 0000 0000 73f7 303e
00000090: c844 953d 278c f4bd 7192 8c3e 216e 98bd

sequential_16/dense_68/MatMul i1 [40, 42] scale=0.006866247 zero_point=0
0.26778364 -0.25405115 -0.14419119 0.20598741 -0.08926121 0.034331236 -0.2609174 -0.07552872
0.013732494 -0.06866247 -0.15105744 0.006866247 -0.2609174 -0.027464988 -0.020598741 0.027464988
-0.1304587 -0.07552872 -0.22658615 0.04806373 0.30211487 0.0 -0.061796222 0.082394965
-0.2197199 0.87201333 0.082394965 -0.1304587 0.013732494 0.0 0.006866247 0.08926121
0.061796222 -0.006866247 -0.16478993 0.14419119 -0.07552872 -0.1167262 -0.14419119 0.020598741
-0.054929975 -0.17165618 -0.09612746 -0.22658615 -0.20598741 0.21285366 -0.16478993 0.09612746
-0.10985995 0.054929975 -0.46003854 0.020598741 -0.2746499 -0.07552872 -0.28151613 -0.054929975
0.56303227 0.09612746 0.61109596 -0.061796222 -0.06866247 0.061796222 -0.034331236 0.061796222
0.56303227 -0.09612746 0.48063728 -0.17165618 0.041197482 0.034331236 0.20598741 0.006866247
0.32957986 -0.061796222 0.25405115 -0.18538867 -0.1304587 -0.041197482 0.501236 0.09612746
0.2334524 0.07552872 -0.061796222 0.041197482 0.08926121 0.082394965 0.054929975 0.13732494
0.041197482 0.020598741 0.31584737 -0.19912116 0.18538867 0.2334524 0.027464988 -0.020598741
0.102993704 -0.08926121 -0.44630605 0.013732494 0.07552872 0.034331236 -0.1167262 -0.013732494
-0.09612746 -0.39824232 0.04806373 0.013732494 0.07552872 0.06866247 0.41884106 0.102993704
-0.006866247 0.082394965 0.054929975 0.14419119 0.020598741 -0.07552872 0.34331235 0.14419119
-0.28151613 -0.041197482 -0.1167262 0.07552872 0.061796222 0.020598741 -0.08926121 -0.14419119
0.13732494 0.22658615 0.04806373 -0.006866247 -0.06866247 -0.054929975 0.2746499 0.06866247
-0.1304587 -0.082394965 0.082394965 0.14419119 -0.020598741 -0.1304587 0.2334524 0.24031864
0.17165618 0.09612746 0.21285366 0.24718489 -0.034331236 0.2609174 0.26778364 0.21285366
-0.19912116 0.082394965 -0.13732494 -0.17165618 -0.102993704 0.1167262 0.19225492 0.041197482
0.04806373 0.24718489 0.04806373 0.15105744 0.13732494 -0.013732494 -0.034331236 0.19912116
0.054929975 -0.13732494 -0.30898112 -0.07552872 -0.44630605 -0.09612746 -0.528701 -0.041197482
-0.41884106 0.034331236 -0.123592444 0.1304587 -0.4394398 -0.061796222 0.0 -0.04806373
-0.3639111 -0.28838238 -0.29524863 0.006866247 0.1304587 0.027464988 -0.06866247 -0.16478993
0.15792368 0.006866247 -0.15792368 0.1304587 0.09612746 0.041197482 0.08926121 0.14419119
0.17852242 0.006866247 -0.020598741 -0.07552872 0.123592444 0.034331236 0.18538867 0.17165618
0.3501786 0.0 0.04806373 -0.04806373 0.06866247 0.020598741 0.09612746 0.07552872
-0.40510857 0.020598741 -0.47377104 0.027464988 -0.041197482 0.034331236 0.06866247 0.027464988
0.41197482 0.034331236 0.15792368 -0.40510857 -0.054929975 0.054929975 0.013732494 0.006866247
0.18538867 0.04806373 0.2746499 0.26778364 -0.027464988 0.041197482 0.17165618 0.013732494
0.020598741 -0.04806373 -0.027464988 0.054929975 -0.08926121 0.027464988 0.21285366 -0.020598741
0.041197482 -0.020598741 0.013732494 0.1304587 0.123592444 0.20598741 -0.013732494 -0.19225492
00000000: 27db eb1e f305 daf5 02f6 ea01 dafc fd04
00000010: edf5 df07 2c00 f70c e07f 0ced 0200 010d
00000020: 09ff e815 f5ef eb03 f8e7 f2df e21f e80e
00000030: f008 bd03 d8f5 d7f8 520e 59f7 f609 fb09
00000040: 52f2 46e7 0605 1e01 30f7 25e5 edfa 490e
00000050: 220b f706 0d0c 0814 0603 2ee3 1b22 04fd
00000060: 0ff3 bf02 0b05 effe f2c6 0702 0b0a 3d0f
00000070: ff0c 0815 03f5 3215 d7fa ef0b 0903 f3eb
00000080: 1421 07ff f6f8 280a edf4 0c15 fded 2223
00000090: 190e 1f24 fb26 271f e30c ece7 f111 1c06
000000a0: 0724 0716 14fe fb1d 08ec d3f5 bff2 b3fa
000000b0: c305 ee13 c0f7 00f9 cbd6 d501 1304 f6e8
000000c0: 1701 e913 0e06 0d15 1a01 fdf5 1205 1b19
000000d0: 3300 07f9 0a03 0e0b c503 bb04 fa05 0a04
000000e0: 3c05 17c5 f808 0201 1b07 2827 fc06 1902
000000f0: 03f9 fc08 f304 1ffd 06fd 0213 121e fee4

sequential_16/dense_69/MatMul i1 [160, 40] scale=0.0040939273 zero_point=0
-0.024563564 0.008187855 0.049127128 -0.13919353 -0.06550284 -0.44214416 0.22925994 -0.024563564
-0.16375709 -0.03275142 0.11053604 -0.020469636 0.11462997 0.01637571 0.024563564 0.15966317
-0.16785102 -0.06550284 0.0450332 -0.07369069 0.04093927 -0.10644211 0.0450332 -0.14328745
0.11462997 -0.036845345 0.098254256 -0.012281782 0.16375709 -0.19241458 0.11872389 0.24154171
-0.23744778 -0.049127128 -0.12691174 -0.012281782 0.024563564 -0.1350996 -0.012281782 0.012281782
0.08597247 -0.06140891 0.15966317 -0.098254256 0.07369069 -0.30295062 -0.06550284 0.1350996
0.06140891 0.008187855 0.15556924 -0.1350996 0.098254256 0.08187854 -0.14328745 -0.012281782
-0.17194495 0.13919353 0.06140891 0.06140891 0.0 0.13919353 0.13100567 -0.20469637
0.11872389 -0.036845345 0.11462997 -0.11462997 0.13919353 -0.20469637 0.11053604 0.2538235
-0.008187855 0.17194495 0.08187854 -0.18832065 -0.094160326 0.08597247 -0.012281782 -0.15147531
-0.1801328 0.13919353 0.0 0.14328745 0.07369069 0.01637571 -0.102348186 0.19650851
-0.19650851 -0.102348186 -0.15966317 0.01637571 0.0 0.17603888 0.17603888 -0.08187854
0.0 -0.19241458 -0.22925994 -0.19241458 -0.11872389 -0.03275142 -0.012281782 -0.04093927
0.008187855 0.29476276 -0.053221054 -0.053221054 -0.2701992 0.07369069 0.098254256 -0.07778462
0.22516601 0.16375709 0.020469636 -0.15966317 -0.020469636 -0.102348186 0.0040939273 0.098254256
-0.102348186 0.28248098 -0.15966317 0.06550284 0.14738138 0.11872389 -0.0900664 -0.049127128
0.17603888 -0.11462997 -0.08187854 -0.04093927 -0.12691174 -0.024563564 -0.22925994 -0.0450332
-0.11053604 -0.03275142 -0.024563564 0.15556924 -0.01637571 -0.16375709 -0.07369069 0.10644211
-0.053221054 0.0040939273 -0.15147531 -0.057314985 0.06550284 -0.13100567 0.20879029 -0.094160326
0.1801328 0.1350996 -0.06959677 0.102348186 0.14328745 -0.0040939273 0.19650851 -0.012281782
-0.07369069 -0.11053604 0.14328745 -0.06140891 0.0900664 -0.24972957 -0.102348186 -0.008187855
-0.12281782 -0.06140891 0.098254256 -0.14328745 0.0450332 -0.16375709 -0.08187854 -0.06550284
-0.20469637 -0.012281782 0.024563564 -0.11872389 0.17603888 0.020469636 0.13100567 -0.26201135
0.27429312 -0.06959677 0.13919353 -0.15966317 0.094160326 0.01637571 0.08187854 0.0
0.0040939273 -0.0450332 -0.16375709 -0.10644211 -0.14738138 -0.036845345 -0.07778462 -0.34798384
0.06959677 -0.1801328 0.08597247 -0.098254256 -0.06959677 -0.11053604 0.094160326 0.16375709
0.012281782 0.102348186 0.053221054 0.17603888 0.20469637 -0.098254256 -0.06140891 0.22107208
0.098254256 0.04093927 -0.18422674 -0.04093927 0.14738138 0.08597247 0.23335385 -0.06959677
-0.0040939273 -0.20060244 -0.057314985 -0.06140891 0.0040939273 -0.17603888 -0.1350996 0.0900664
-0.23335385 0.16375709 -0.15966317 -0.15966317 -0.0450332 -0.11872389 0.049127128 -0.049127128
-0.29066885 -0.024563564 -0.049127128 0.06140891 -0.06959677 -0.0040939273 -0.036845345 0.06140891
-0.16785102 0.1801328 -0.12691174 0.057314985 -0.049127128 -0.06959677 0.094160326 0.024563564
00000000: fa02 0cde f094 38fa d8f8 1bfb 1c04 0627
00000010: d7f0 0bee 0ae6 0bdd 1cf7 18fd 28d1 1d3b
00000020: c6f4 e1fd 06df fd03 15f1 27e8 12b6 f021
00000030: 0f02 26df 1814 ddfd d622 0f0f 0022 20ce
00000040: 1df7 1ce4 22ce 1b3e fe2a 14d2 e915 fddb
00000050: d422 0023 1204 e730 d0e7 d904 002b 2bec
00000060: 00d1 c8d1 e3f8 fdf6 0248 f3f3 be12 18ed
00000070: 3728 05d9 fbe7 0118 e745 d910 241d eaf4
00000080: 2be4 ecf6 e1fa c8f5 e5f8 fa26 fcd8 ee1a
00000090: f301 dbf2 10e0 33e9 2c21 ef19 23ff 30fd
000000a0: eee5 23f1 16c3 e7fe e2f1 18dd 0bd8 ecf0
000000b0: cefd 06e3 2b05 20c0 43ef 22d9 1704 1400
000000c0: 01f5 d8e6 dcf7 edab 11d4 15e8 efe5 1728
000000d0: 0319 0d2b 32e8 f136 180a d3f6 2415 39ef
000000e0: ffcf f2f1 01d5 df16 c728 d9d9 f5e3 0cf4
000000f0: b9fa f40f efff f70f d72c e10e f4ef 1706

sequential_16/dense_70/MatMul i1 [80, 160] scale=0.003837594 zero_point=0
0.030700753 0.18420452 -0.115127824 -0.14966618 0.21490526 0.003837594 -0.2532812 0.049888723
-0.14199097 0.23025565 0.1304782 0.069076695 -0.16117895 0.2609564 0.30316994 -0.061401505
-0.24560602 0.015350376 -0.1918797 -0.0652391 0.061401505 0.20339249 0.0652391 0.07675188
0.115127824 0.011512782 0.10361504 -0.042213533 -0.16885413 0.08058947 -0.053726315 0.14966618
0.0 0.003837594 -0.15350376 0.084427066 -0.07675188 0.01918797 -0.061401505 -0.0652391
0.03837594 0.034538347 0.034538347 0.03837594 -0.003837594 0.084427066 -0.03837594 0.09210226
-0.01918797 0.08058947 0.003837594 -0.10361504 -0.01918797 0.0 -0.01918797 0.026863158
-0.11129023 -0.23409323 0.13815339 0.061401505 -0.2532812 0.12280301 0.061401505 0.042213533
-0.20723008 0.08826467 -0.21490526 0.0 0.0652391 0.003837594 0.22641805 -0.023025565
-0.007675188 -0.115127824 -0.026863158 -0.061401505 -0.003837594 -0.007675188 -0.007675188 -0.37992182
-0.026863158 -0.08058947 0.015350376 0.042213533 0.011512782 -0.14582857 0.09593985 -0.049888723
-0.1304782 -0.084427066 -0.20339249 -0.10745263 0.09210226 0.26863158 0.14199097 0.18036692
0.07291429 0.084427066 -0.011512782 -0.09593985 0.01918797 -0.03837594 0.049888723 0.0652391
-0.061401505 -0.13431579 0.026863158 -0.049888723 -0.10745263 0.13431579 -0.04605113 0.13431579
0.084427066 -0.034538347 0.069076695 0.10745263 -0.007675188 0.1266406 -0.04605113 -0.22258046
0.0652391 -0.069076695 -0.10745263 0.23409323 -0.015350376 -0.16885413 -0.09593985 -0.057563912
0.14582857 -0.07291429 -0.099777445 -0.17269173 0.053726315 -0.16501655 0.08058947 0.061401505
0.04605113 -0.1266406 -0.14966618 0.11129023 -0.14199097 -0.07675188 0.03837594 -0.15350376
0.12280301 0.09210226 -0.084427066 -0.07675188 0.10745263 0.015350376 0.07675188 0.115127824
0.1880421 -0.11129023 -0.03837594 -0.023025565 0.115127824 0.099777445 0.10745263 0.21874286
0.09593985 -0.14199097 -0.023025565 0.20339249 -0.11896542 -0.08826467 0.0652391 -0.17652933
-0.007675188 -0.01918797 -0.026863158 -0.026863158 0.10361504 0.023025565 0.17269173 0.030700753
0.16117895 0.09593985 0.13815339 -0.01918797 -0.042213533 0.053726315 -0.17269173 -0.17269173
0.08058947 -0.042213533 0.015350376 -0.007675188 0.21106768 -0.069076695 0.042213533 -0.1304782
0.011512782 -0.22258046 -0.053726315 0.08058947 0.057563912 0.026863158 -0.11896542 -0.0652391
-0.22258046 -0.042213533 -0.030700753 -0.24176842 0.03837594 -0.030700753 -0.07675188 -0.061401505
-0.042213533 -0.14199097 -0.053726315 -0.20339249 0.1918797 -0.22258046 -0.057563912 -0.13431579
0.11896542 -0.034538347 -0.15734136 -0.29933235 0.13815339 -0.099777445 0.007675188 -0.057563912
-0.08826467 -0.1880421 0.23025565 -0.030700753 0.04605113 -0.08826467 -0.12280301 0.08826467
0.07291429 -0.115127824 0.20723008 -0.01918797 -0.057563912 0.16501655 -0.14199097 0.18036692
0.22641805 0.084427066 -0.084427066 0.13815339 -0.22258046 -0.084427066 0.07291429 0.07291429
0.01918797 -0.1266406 -0.026863158 -0.061401505 0.23409323 -0.042213533 0.049888723 0.04605113
00000000: 0830 e2d9 3801 be0d db3c 2212 d644 4ff0
00000010: c004 ceef 1035 1114 1e03 1bf5 d415 f227
00000020: 0001 d816 ec05 f0ef 0a09 090a ff16 f618
00000030: fb15 01e5 fb00 fb07 e3c3 2410 be20 100b
00000040: ca17 c800 1101 3bfa fee2 f9f0 fffe fe9d
00000050: f9eb 040b 03da 19f3 deea cbe4 1846 252f
00000060: 1316 fde7 05f6 0d11 f0dd 07f3 e423 f423
00000070: 16f7 121c fe21 f4c6 11ee e43d fcd4 e7f1
00000080: 26ed e6d3 0ed5 1510 0cdf d91d dbec 0ad8
00000090: 2018 eaec 1c04 141e 31e3 f6fa 1e1a 1c39
000000a0: 19db fa35 e1e9 11d2 fefb f9f9 1b06 2d08
000000b0: 2a19 24fb f50e d3d3 15f5 04fe 37ee 0bde
000000c0: 03c6 f215 0f07 e1ef c6f5 f8c1 0af8 ecf0
000000d0: f5db f2cb 32c6 f1dd 1ff7 d7b2 24e6 02f1
000000e0: e9cf 3cf8 0ce9 e017 13e2 36fb f12b db2f
000000f0: 3b16 ea24 c6ea 1313 05df f9f0 3df5 0d0c

sequential_16/dense_71/MatMul i1 [20, 80] scale=0.003608405 zero_point=0
-0.24897994 0.19485386 -0.15876982 0.0757765 -0.17681184 -0.21650429 -0.06855969 0.046909265
0.24537154 -0.23454632 -0.20207067 -0.24537154 -0.26341355 0.12990257 -0.15876982 -0.23093791
-0.11546896 0.02886724 0.18042025 -0.039692454 -0.16237822 0.17320344 0.09742693 -0.24176313
0.039692454 0.0 0.16959503 -0.19124547 -0.01443362 -0.07938491 0.13351098 -0.0721681
0.11907736 0.17320344 0.05773448 0.22732951 0.11546896 0.08660172 0.039692454 -0.039692454
-0.090210125 -0.15876982 0.101035334 -0.010825215 -0.04330086 0.01443362 -0.20567907 0.08660172
0.054126073 -0.25980514 -0.18402866 0.12268577 -0.04330086 0.025258834 -0.0721681 -0.20567907
-0.25980514 0.018042024 -0.101035334 0.17681184 0.16598663 -0.18763706 -0.04330086 0.151553
0.13711938 0.11186055 -0.00721681 0.16598663 -0.09742693 -0.10464374 -0.01443362 0.02886724
0.02165043 -0.19485386 0.11546896 -0.20567907 0.13351098 0.151553 -0.05773448 0.010825215
-0.18042025 -0.054126073 0.050517667 -0.11186055 0.054126073 0.1479446 0.27063036 -0.12268577
-0.032475643 -0.11546896 0.064951286 0.054126073 0.18402866 0.27063036 0.11186055 0.1479446
-0.010825215 0.12268577 -0.18763706 0.108252145 0.22732951 0.20207067 0.24897994 -0.12268577
-0.19485386 -0.16598663 -0.050517667 0.08299331 0.039692454 0.108252145 0.101035334 -0.18042025
-0.0757765 0.24897994 0.151553 0.22732951 -0.046909265 -0.06855969 0.039692454 -0.14072779
0.26702195 -0.08299331 -0.15876982 -0.12990257 -0.090210125 -0.018042024 0.00721681 0.16237822
0.10464374 -0.054126073 -0.08299331 0.032475643 -0.17681184 0.003608405 -0.07938491 0.0
-0.16959503 0.003608405 -0.11546896 -0.09742693 -0.064951286 0.13711938 -0.11186055 -0.17681184
-0.07938491 0.15876982 0.06855969 0.11546896 0.09742693 0.10464374 -0.13711938 -0.16959503
0.18763706 0.16598663 -0.050517667 0.1443362 -0.23093791 -0.064951286 0.09742693 0.0721681
-0.09742693 0.050517667 0.20567907 -0.20928748 -0.21650429 0.0757765 0.27784717 0.18763706
0.24537154 -0.151553 -0.25258833 0.24176313 -0.05773448 0.33919007 -0.23454632 0.2201127
0.0757765 0.06855969 0.01443362 0.21650429 0.0757765 0.12268577 0.2994976 -0.08299331
0.03608405 0.151553 -0.24537154 -0.27063036 -0.26702195 -0.12990257 0.19485386 0.2958892
-0.15516141 0.32836485 0.26702195 0.2958892 -0.28145558 -0.101035334 -0.01443362 0.11907736
0.3536237 0.16598663 0.09742693 0.19124547 0.02886724 0.21289589 0.19846226 0.32836485
-0.21650429 0.16598663 0.13351098 -0.02165043 0.24897994 0.151553 -0.12268577 -0.064951286
0.22732951 -0.050517667 0.13711938 -0.151553 0.2237211 0.20928748 0.108252145 -0.054126073
-0.2922808 0.3860993 -0.05773448 0.2201127 0.003608405 0.21289589 0.24897994 -0.151553
-0.12268577 -0.16237822 0.18042025 0.003608405 -0.01443362 -0.151553 -0.23093791 -0.303106
0.032475643 -0.003608405 0.00721681 0.21289589 -0.17681184 -0.025258834 -0.10464374 0.13351098
0.13351098 0.02165043 0.24537154 0.050517667 0.108252145 -0.23093791 -0.046909265 -0.23454632
00000000: bb36 d415 cfc4 ed0d 44bf c8bc b724 d4c0
00000010: e008 32f5 d330 1bbd 0b00 2fcb fcea 25ec
00000020: 2130 103f 2018 0bf5 e7d4 1cfd f404 c718
00000030: 0fb8 cd22 f407 ecc7 b805 e431 2ecc f42a
00000040: 261f fe2e e5e3 fc08 06ca 20c7 252a f003
00000050: cef1 0ee1 0f29 4bde f7e0 120f 334b 1f29
00000060: fd22 cc1e 3f38 45de cad2 f217 0b1e 1cce
00000070: eb45 2a3f f3ed 0bd9 4ae9 d4dc e7fb 022d
00000080: 1df1 e909 cf01 ea00 d101 e0e5 ee26 e1cf
00000090: ea2c 1320 1b1d dad1 342e f228 c0ee 1b14
000000a0: e50e 39c6 c415 4d34 44d6 ba43 f05e bf3d
000000b0: 1513 043c 1522 53e9 0a2a bcb5 b6dc 3652
000000c0: d55b 4a52 b2e4 fc21 622e 1b35 083b 375b
000000d0: c42e 25fa 452a deee 3ff2 26d6 3e3a 1ef1
000000e0: af6b f03d 013b 45d6 ded3 3201 fcd6 c0ac
000000f0: 09ff 023b cff9 e325 2506 440e 1ec0 f3bf

sequential_16/dense_72/MatMul f4 [4, 20]
0.14511114 0.14486542 -0.23982184 0.10528743 -0.6404892 -0.6968986 0.3164629 0.21079393
0.48023885 0.04858368 -0.69706154 0.5062695 -0.67530656 -0.63051915 0.004000463 0.32741898
0.3675832 -0.6424216 0.030006895 0.5894786 0.30362415 0.3831902 0.29792213 0.27655515
-0.10102465 -0.051986832 0.06122464 -0.31924027 -0.23556195 0.40619415 -0.13826507 0.3001866
-0.35159788 0.11767269 -0.11969265 -0.12519911 -0.32346454 0.03384333 0.044001825 0.21110801
-0.14742272 -0.22462586 0.13550243 -0.28268552 -0.34307596 -0.06679786 -0.08672022 -0.25823927
-0.40849656 -0.40738583 0.42068878 -0.027906623 -0.41302195 0.3244173 0.34002694 0.055367157
0.032532994 -0.4082988 -0.43240786 -0.16021767 0.23858249 -0.07384905 -0.30878168 0.29916987
-0.12552744 -0.1920423 0.39467433 -0.071084954 -0.4115548 0.07878338 -0.4779113 -0.12744923
0.011274333 0.23481311 -0.2884237 0.4017546 0.077172704 -0.09874051 -0.058725517 0.09749923
00000000: 0498 143e 9a57 143e db93 75be f0a0 d73d
00000010: 1af7 23bf f267 32bf 6d07 a23e 5dda 573e
00000020: dee1 f53e aeff 463d a072 32bf e19a 013f
00000030: e4e0 2cbf b469 21bf 5116 833b 76a3 a73e
00000040: dd33 bc3e be75 24bf 05d1 f53c 12e8 163f
00000050: a074 9b3e 8231 c43e 4089 983e a398 8d3e
00000060: 03e6 cebd 25f0 54bd b0c6 7a3d 7673 a3be
00000070: 2737 71be aef8 cf3e 5c95 0dbe 0fb2 993e
00000080: a304 b4be 61fe f03d 6c21 f5bd 3234 00be
00000090: 259d a5be 4e9f 0a3d 423b 343d b32c 583e
000000a0: fbf5 16be 5204 66be 26c1 0a3e 28bc 90be
000000b0: a7a7 afbe 51cd 88bd 5f9a b1bd f037 84be
000000c0: 7626 d1be e094 d0be 8564 d73e 6e9c e4bc
000000d0: 9d77 d3be 061a a63e 0318 ae3e acc8 623d
000000e0: 5141 053d 8a0c d1be 9064 ddbe 1a10 24be
000000f0: f84e 743e 2c3e 97bd a218 9ebe cb2c 993e
00000100: 448a 00be bda6 44be c112 ca3e fd94 91bd
00000110: 50b7 d2be 2e59 a13d cab0 f4be 0d82 02be
00000120: fbb7 383c d972 703e 45ac 93be c7b2 cd3e
00000130: b90c 9e3d 7738 cabd 2b8a 70bd adad c73d
